…
iew(-1))\r\n            return logits, loss\r\n\r\n        return logits\r\n\r\n# Initialize the corrected NanoGPT model\r\nmodel = NanoGPT(vocab_size=vocab_size, block_size=block_size, n_embd=n_embd)\r\n\r\n# Display the basic structure of the model\r\nmodel\r\n"}, "status": "finished_successfully", "end_turn": false, "weight": 1.0, "recipient": "python"}, {"id": "f8d37d34-aa8b-4583-aef8-cd969b266d70", "author": {"role": "tool", "name": "python"}, "create_time": 1702635317.739437, "update_time": 1702635288.484669, "content": {"content_type": "execution_output", "text": "NanoGPT(\n  (embedding): Embedding(50257, 768)\n  (transformer_blocks): Sequential(\n    (0): TransformerEncoderLayer(\n      (self_attn): MultiheadAttention(\n        (out_proj): NonDynamicallyQuantizableLinear(in_features=768, out_features=768, bias=True)\n      )\n      (linear1): Linear(in_features=768, out_features=2048, bias=True)\n      (dropout): Dropout(p=0.1, inplace=False)\n      (linear2): Linear(in_features=2048, out_features=768, bias=True)\n      (norm1): LayerNorm((768,), eps=1e-05, elementwise_affine=True)\n      (norm2): LayerNorm((768,), eps=1e-05, elementwise_affine=True)\n      (dropout1): Dropout(p=0.1, inplace=False)\n      (dropout2): Dropout(p=0.1, inplace=False)\n    )\n    (1): TransformerEncoderLayer(\n      (self_attn): MultiheadAttention(\n        (out_proj): NonDynamicallyQuantizableLinear(in_features=768, out_features=768, bias=True)\n      )\n      (linear1): Linear(in_features=768, out_features=2048, bias=True)\n      (dropout): Dropout(p=0.1, inplace=False)\n      (linear2): Linear(in_features=2048, out_features=768, bias=True)\n      (norm1): LayerNorm((768,), eps=1e-05, elementwise_affine=True)\n      (norm2): LayerNorm((768,), eps=1e-05, elementwise_affine=True)\n      (dropout1): Dropout(p=0.1, inplace=False)\n      (dropout2): Dropout(p=0.1, inplace=False)\n    )\n    (2): TransformerEncoderLayer(\n      (self_attn): MultiheadAttention(\n        (out_proj): NonDynamicallyQuantizableLinear(in_features=768, out_features=768, bias=True)\n      )\n      (linear1): Linear(in_features=768, out_features=2048, bias=True)\n      (dropout): Dropout(p=0.1, inplace=False)\n      (linear2): Linear(in_features=2048, out_features=768, bias=True)\n      (norm1): LayerNorm((768,), eps=1e-05, elementwise_affine=True)\n      (norm2): LayerNorm((768,), eps=1e-05, elementwise_affine=True)\n      (dropout1): Dropout(p=0.1, inplace=False)\n      (dropout2): Dropout(p=0.1, inplace=False)\n    )\n    (3): TransformerEncoderLayer(\n      (self_attn): MultiheadAttention(\n        (out_proj): NonDynamicallyQuantizableLinear(in_features=768, out_features=768, bias=True)\n      )\n      (linear1): Linear(in_features=768, out_features=2048, bias=True)\n      (dropout): Dropout(p=0.1, inplace=False)\n      (linear2): Linear(in_features=2048, out_features=768, bias=True)\n      (norm1): LayerNorm((768,), eps=1e-05, elementwise_affine=True)\n      (norm2): LayerNorm((768,), eps=1e-05, elementwise_affine=True)\n      (dropout1): Dropout(p=0.1, inplace=False)\n      (dropout2): Dropout(p=0.1, inplace=False)\n    )\n  )\n  (ln_f): LayerNorm((768,), eps=1e-05, elementwise_affine=True)\n  (head): Linear(in_features=768, out_features=50257, bias=False)\n)"}, "status": "finished_successfully", "end_turn": null, "weight": 1.0, "recipient": "all"}, {"id": "5b9ff06b-84ab-4a96-a2c6-894a5a94a7dc", "author": {"role": "assistant", "name": null}, "create_time": 1702635317.739872, "update_time": null, "content": {"content_type": "text", "parts": ["The NanoGPT model has been successfully defined with a seque
…
atus": "finished_successfully", "end_turn": false, "weight": 1.0, "recipient": "python"}, {"id": "0ed6e845-45d2-4255-855a-d36792b20648", "author": {"role": "tool", "name": "python"}, "create_time": 1702644462.39342, "update_time": 1702644431.6474092, "content": {"content_type": "execution_output", "text": "/home/sandbox/.local/lib/python3.8/site-packages/tqdm/auto.py:22: TqdmWarning: IProgress not found. Please update jupyter and ipywidgets. See https://ipywidgets.readthedocs.io/en/stable/user_install.html\n  from .autonotebook import tqdm as notebook_tqdm\nNanoGPTWithSoftTokens(\n  (embedding): Embedding(50257, 768)\n  (transformer_blocks): Sequential(\n    (0): TransformerEncoderLayer(\n      (self_attn): MultiheadAttention(\n        (out_proj): NonDynamicallyQuantizableLinear(in_features=768, out_features=768, bias=True)\n      )\n      (linear1): Linear(in_features=768, out_features=2048, bias=True)\n      (dropout): Dropout(p=0.1, inplace=False)\n      (linear2): Linear(in_features=2048, out_features=768, bias=True)\n      (norm1): LayerNorm((768,), eps=1e-05, elementwise_affine=True)\n      (norm2): LayerNorm((768,), eps=1e-05, elementwise_affine=True)\n      (dropout1): Dropout(p=0.1, inplace=False)\n      (dropout2): Dropout(p=0.1, inplace=False)\n    )\n    (1): TransformerEncoderLayer(\n      (self_attn): MultiheadAttention(\n        (out_proj): NonDynamicallyQuantizableLinear(in_features=768, out_features=768, bias=True)\n      )\n      (linear1): Linear(in_features=768, out_features=2048, bias=True)\n      (dropout): Dropout(p=0.1, inplace=False)\n      (linear2): Linear(in_features=2048, out_features=768, bias=True)\n      (norm1): LayerNorm((768,), eps=1e-05, elementwise_affine=True)\n      (norm2): LayerNorm((768,), eps=1e-05, elementwise_affine=True)\n      (dropout1): Dropout(p=0.1, inplace=False)\n      (dropout2): Dropout(p=0.1, inplace=False)\n    )\n    (2): TransformerEncoderLayer(\n      (self_attn): MultiheadAttention(\n        (out_proj): NonDynamicallyQuantizableLinear(in_features=768, out_features=768, bias=True)\n      )\n      (linear1): Linear(in_features=768, out_features=2048, bias=True)\n      (dropout): Dropout(p=0.1, inplace=False)\n      (linear2): Linear(in_features=2048, out_features=768, bias=True)\n      (norm1): LayerNorm((768,), eps=1e-05, elementwise_affine=True)\n      (norm2): LayerNorm((768,), eps=1e-05, elementwise_affine=True)\n      (dropout1): Dropout(p=0.1, inplace=False)\n      (dropout2): Dropout(p=0.1, inplace=False)\n    )\n    (3): TransformerEncoderLayer(\n      (self_attn): MultiheadAttention(\n        (out_proj): NonDynamicallyQuantizableLinear(in_features=768, out_features=768, bias=True)\n      )\n      (linear1): Linear(in_features=768, out_features=2048, bias=True)\n      (dropout): Dropout(p=0.1, inplace=False)\n      (linear2): Linear(in_features=2048, out_features=768, bias=True)\n      (norm1): LayerNorm((768,), eps=1e-05, elementwise_affine=True)\n      (norm2): LayerNorm((768,), eps=1e-05, elementwise_affine=True)\n      (dropout1): Dropout(p=0.1, inplace=False)\n      (dropout2): Dropout(p=0.1, inplace=False)\n    )\n  )\n  (ln_f): LayerNorm((768,), eps=1e-05, elementwise_affine=True)\n  (soft_token_head): Linear(in_features=768, out_features=768, bias=True)\n)"}, "status": "finished_successfully", "end_turn": null, "weight": 1.0, "recipient": "all"}, {"id": "d8541476-b3c6-4531-aae2-f2754d76148d", "author": {"role": "assistant", "name": null}, "create_time": 1702644462.393831, "update_time": null, "content": {"content_type": "text", "parts": ["The modified NanoGPT model, `NanoGPTWithSoftTokens`, is now set
…
